…
Starting training with optimizer parameters:
2024-10-29 11:14:10,721 | INFO | CLIP LR: 1e-05, Predictor LR: 5e-05, Weight Decay: 0.001, Beta1: 0.9, Beta2: 0.999
2024-10-29 11:14:10,721 | INFO | Starting new training run with validation
2024-10-29 11:14:10,722 | INFO | Training hyperparameters:
2024-10-29 11:14:10,722 | INFO | {
  "clip_lr": 1e-05,
  "predictor_lr": 5e-05,
  "weight_decay": 0.001,
  "beta1": 0.9,
  "beta2": 0.999,
  "num_epochs": 40,
  "patience": 10,
  "device": "cuda",
  "model_architecture": "CategoryAwareAttributePredictor(\n  (attribute_predictors): ModuleDict(\n    (Kurtis_color): Sequential(\n      (0): Linear(in_features=768, out_features=256, bias=True)\n      (1): ReLU()\n      (2): Dropout(p=0.1, inplace=False)\n      (3): Linear(in_features=256, out_features=13, bias=True)\n    )\n    (Kurtis_fit_shape): Sequential(\n      (0): Linear(in_features=768, out_features=256, bias=True)\n      (1): ReLU()\n      (2): Dropout(p=0.1, inplace=False)\n      (3): Linear(in_features=256, out_features=2, bias=True)\n    )\n    (Kurtis_length): Sequential(\n      (0): Linear(in_features=768, out_features=256, bias=True)\n      (1): ReLU()\n      (2): Dropout(p=0.1, inplace=False)\n      (3): Linear(in_features=256, out_features=2, bias=True)\n    )\n    (Kurtis_occasion): Sequential(\n      (0): Linear(in_features=768, out_features=256, bias=True)\n      (1): ReLU()\n      (2): Dropout(p=0.1, inplace=False)\n      (3): Linear(in_features=256, out_features=2, bias=True)\n    )\n    (Kurtis_ornamentation): Sequential(\n      (0): Linear(in_features=768, out_features=256, bias=True)\n      (1): ReLU()\n      (2): Dropout(p=0.1, inplace=False)\n      (3): Linear(in_features=256, out_features=2, bias=True)\n    )\n    (Kurtis_pattern): Sequential(\n      (0): Linear(in_features=768, out_features=256, bias=True)\n      (1): ReLU()\n      (2): Dropout(p=0.1, inplace=False)\n      (3): Linear(in_features=256, out_features=2, bias=True)\n    )\n    (Kurtis_print_or_pattern_type): Sequential(\n      (0): Linear(in_features=768, out_features=256, bias=True)\n      (1): ReLU()\n      (2): Dropout(p=0.1, inplace=False)\n      (3): Linear(in_features=256, out_features=2, bias=True)\n    )\n    (Kurtis_sleeve_length): Sequential(\n      (0): Linear(in_features=768, out_features=256, bias=True)\n      (1): ReLU()\n      (2): Dropout(p=0.1, inplace=False)\n      (3): Linear(in_features=256, out_features=3, bias=True)\n    )\n    (Kurtis_sleeve_styling): Sequential(\n      (0): Linear(in_features=768, out_features=256, bias=True)\n      (1): ReLU()\n      (2): Dropout(p=0.1, inplace=False)\n      (3): Linear(in_features=256, out_features=2, bias=True)\n    )\n    (Men Tshirts_color): Sequential(\n      (0): Linear(in_features=768, out_features=256, bias=True)\n      (1): ReLU()\n      (2): Dropout(p=0.1, inplace=False)\n      (3): Linear(in_features=256, out_features=4, bias=True)\n    )\n    (Men Tshirts_neck): Sequential(\n      (0): Linear(in_features=768, out_features=256, bias=True)\n      (1): ReLU()\n      (2): Dropout(p=0.1, inplace=False)\n      (3): Linear(in_features=256, out_features=2, bias=True)\n    )\n    (Men Tshirts_pattern): Sequential(\n      (0): Linear(in_features=768, out_features=256, bias=True)\n      (1): ReLU()\n      (2): Dropout(p=0.1, inplace=False)\n      (3): Linear(in_features=256, out_features=2, bias=True)\n    )\n    (Men Tshirts_print_or_pattern_type): Sequential(\n      (0): Linear(in_features=768, out_features=256, bias=True)\n      (1): ReLU()\n      (2): Dropout(p=0.1, inplace=False)\n      (3): Linear(in_features=256, out_features=3, bias=True)\n    )\n    (Men Tshirts_sleeve_length): Sequential(\n      (0): Linear(in_features=768, out_features=256, bias=True)\n      (1): ReLU()\n      (2): Dropout(p=0.1, inplace=False)\n      (3): Linear(in_features=256, out_features=2, bias=True)\n    )\n    (Sarees_blouse_pattern): Sequential(\n      (0): Linear(in_features=768, out_features=256, bias=True)\n      (1): ReLU()\n      (2): Dropout(p=0.1, inplace=False)\n      (3): Linear(in_features=256, out_features=4, bias=True)\n    )\n    (Sarees_border): Sequential(\n      (0): Linear(in_features=768, out_features=256, bias=True)\n      (1): ReLU()\n      (2): Dropout(p=0.1, inplace=False)\n      (3): Linear(in_features=256, out_features=6, bias=True)\n    )\n    (Sarees_border_width): Sequential(\n      (0): Linear(in_features=768, out_features=256, bias=True)\n      (1): ReLU()\n      (2): Dropout(p=0.1, inplace=False)\n      (3): Linear(in_features=256, out_features=3, bias=True)\n    )\n    (Sarees_color): Sequential(\n      (0): Linear(in_features=768, out_features=256, bias=True)\n      (1): ReLU()\n      (2): Dropout(p=0.1, inplace=False)\n      (3): Linear(in_features=256, out_features=8, bias=True)\n    )\n    (Sarees_occasion): Sequential(\n      (0): Linear(in_features=768, out_features=256, bias=True)\n      (1): ReLU()\n      (2): Dropout(p=0.1, inplace=False)\n      (3): Linear(in_features=256, out_features=4, bias=True)\n    )\n    (Sarees_ornamentation): Sequential(\n      (0): Linear(in_features=768, out_features=256, bias=True)\n      (1): ReLU()\n      (2): Dropout(p=0.1, inplace=False)\n      (3): Linear(in_features=256, out_features=3, bias=True)\n    )\n    (Sarees_pallu_details): Sequential(\n      (0): Linear(in_features=768, out_features=256, bias=True)\n      (1): ReLU()\n      (2): Dropout(p=0.1, inplace=False)\n      (3): Linear(in_features=256, out_features=4, bias=True)\n    )\n    (Sarees_pattern): Sequential(\n      (0): Linear(in_features=768, out_features=256, bias=True)\n      (1): ReLU()\n      (2): Dropout(p=0.1, inplace=False)\n      (3): Linear(in_features=256, out_features=5, bias=True)\n    )\n    (Sarees_print_or_pattern_type): Sequential(\n      (0): Linear(in_features=768, out_features=256, bias=True)\n      (1): ReLU()\n      (2): Dropout(p=0.1, inplace=False)\n      (3): Linear(in_features=256, out_features=9, bias=True)\n    )\n    (Sarees_transparency): Sequential(\n      (0): Linear(in_features=768, out_features=256, bias=True)\n      (1): ReLU()\n      (2): Dropout(p=0.1, inplace=False)\n      (3): Linear(in_features=256, out_features=2, bias=True)\n    )\n    (Women Tops & Tunics_color): Sequential(\n      (0): Linear(in_features=768, out_features=256, bias=True)\n      (1): ReLU()\n      (2): Dropout(p=0.1, inplace=False)\n      (3): Linear(in_features=256, out_features=12, bias=True)\n    )\n    (Women Tops & Tunics_fit_shape): Sequential(\n      (0): Linear(in_features=768, out_features=256, bias=True)\n      (1): ReLU()\n      (2): Dropout(p=0.1, inplace=False)\n      (3): Linear(in_features=256, out_features=4, bias=True)\n    )\n    (Women Tops & Tunics_length): Sequential(\n      (0): Linear(in_features=768, out_features=256, bias=True)\n      (1): ReLU()\n      (2): Dropout(p=0.1, inplace=False)\n      (3): Linear(in_features=256, out_features=2, bias=True)\n    )\n    (Women Tops & Tunics_neck_collar): Sequential(\n      (0): Linear(in_features=768, out_features=256, bias=True)\n      (1): ReLU()\n      (2): Dropout(p=0.1, inplace=False)\n      (3): Linear(in_features=256, out_features=7, bias=True)\n    )\n    (Women Tops & Tunics_occasion): Sequential(\n      (0): Linear(in_features=768, out_features=256, bias=True)\n      (1): ReLU()\n      (2): Dropout(p=0.1, inplace=False)\n      (3): Linear(in_features=256, out_features=2, bias=True)\n    )\n    (Women Tops & Tunics_pattern): Sequential(\n      (0): Linear(in_features=768, out_features=256, bias=True)\n      (1): ReLU()\n      (2): Dropout(p=0.1, inplace=False)\n      (3): Linear(in_features=256, out_features=3, bias=True)\n    )\n    (Women Tops & Tunics_print_or_pattern_type): Sequential(\n      (0): Linear(in_features=768, out_features=256, bias=True)\n      (1): ReLU()\n      (2): Dropout(p=0.1, inplace=False)\n      (3): Linear(in_features=256, out_features=6, bias=True)\n    )\n    (Women Tops & Tunics_sleeve_length): Sequential(\n      (0): Linear(in_features=768, out_features=256, bias=True)\n      (1): ReLU()\n      (2): Dropout(p=0.1, inplace=False)\n      (3): Linear(in_features=256, out_features=4, bias=True)\n    )\n    (Women Tops & Tunics_sleeve_styling): Sequential(\n      (0): Linear(in_features=768, out_features=256, bias=True)\n      (1): ReLU()\n      (2): Dropout(p=0.1, inplace=False)\n      (3): Linear(in_features=256, out_features=4, bias=True)\n    )\n    (Women Tops & Tunics_surface_styling): Sequential(\n      (0): Linear(in_features=768, out_features=256, bias=True)\n      (1): ReLU()\n      (2): Dropout(p=0.1, inplace=False)\n      (3): Linear(in_features=256, out_features=6, bias=True)\n    )\n    (Women Tshirts_color): Sequential(\n      (0): Linear(in_features=768, out_features=256, bias=True)\n      (1): ReLU()\n      (2): Dropout(p=0.1, inplace=False)\n      (3): Linear(in_features=256, out_features=7, bias=True)\n    )\n    (Women Tshirts_fit_shape): Sequential(\n      (0): Linear(in_features=768, out_features=256, bias=True)\n      (1): ReLU()\n      (2): Dropout(p=0.1, inplace=False)\n      (3): Linear(in_features=256, out_features=3, bias=True)\n    )\n    (Women Tshirts_length): Sequential(\n      (0): Linear(in_features=768, out_features=256, bias=True)\n      (1): ReLU()\n      (2): Dropout(p=0.1, inplace=False)\n      (3): Linear(in_features=256, out_features=3, bias=True)\n    )\n    (Women Tshirts_pattern): Sequential(\n      (0): Linear(in_features=768, out_features=256, bias=True)\n      (1): ReLU()\n      (2): Dropout(p=0.1, inplace=False)\n      (3): Linear(in_features=256, out_features=3, bias=True)\n    )\n    (Women Tshirts_print_or_pattern_type): Sequential(\n      (0): Linear(in_features=768, out_features=256, bias=True)\n      (1): ReLU()\n      (2): Dropout(p=0.1, inplace=False)\n      (3): Linear(in_features=256, out_features=6, bias=True)\n    )\n    (Women Tshirts_sleeve_length): Sequential(\n      (0): Linear(in_features=768, out_features=256, bias=True)\n      (1): ReLU()\n      (2): Dropout(p=0.1, inplace=False)\n      (3): Linear(in_features=256, out_features=3, bias=True)\n    )\n    (Women Tshirts_sleeve_styling): Sequential(\n      (0): Linear(in_features=768, out_features=256, bias=True)\n      (1): ReLU()\n      (2): Dropout(p=0.1, inplace=False)\n      (3): Linear(in_features=256, out_features=2, bias=True)\n    )\n    (Women Tshirts_surface_styling): Sequential(\n      (0): Linear(in_features=768, out_features=256, bias=True)\n      (1): ReLU()\n      (2): Dropout(p=0.1, inplace=False)\n      (3): Linear(in_features=256, out_features=2, bias=True)\n    )\n  )\n)"
}
2024-10-29 11:14:17,021 | INFO | CLIP model loaded successfully
2024-10-29 11:14:17,026 | INFO | Starting epoch 1/40
2024-10-29 11:14:24,458 | INFO | Epoch 1, Batch 0: Loss = 1.2854, Accuracy = 38.8693%
2024-10-29 11:15:04,855 | INFO | Epoch 1, Batch 100: Loss = 0.6886, Accuracy = 72.1831%
2024-10-29 11:15:44,522 | INFO | Epoch 1, Batch 200: Loss = 0.6801, Accuracy = 78.8927%
…
