…
2024-10-29 01:00:22,321 | INFO | CLIP LR: 1e-05, Predictor LR: 5e-05, Weight Decay: 0.001, Beta1: 0.9, Beta2: 0.999
2024-10-29 01:00:22,321 | INFO | Starting new training run with validation
2024-10-29 01:00:22,325 | INFO | Training hyperparameters:
2024-10-29 01:00:22,326 | INFO | {
  "clip_lr": 1e-05,
  "predictor_lr": 5e-05,
  "weight_decay": 0.001,
  "beta1": 0.9,
  "beta2": 0.999,
  "num_epochs": 40,
  "patience": 10,
  "device": "cuda",
  "model_architecture": "CategoryAwareAttributePredictor(\n  (saree_cnn): SareeCNNModule(\n    (features): Sequential(\n      (0): Sequential(\n        (0): Conv2dNormActivation(\n          (0): Conv2d(3, 32, kernel_size=(3, 3), stride=(2, 2), padding=(1, 1), bias=False)\n          (1): BatchNorm2d(32, eps=1e-05, momentum=0.1, affine=True, track_running_stats=True)\n          (2): SiLU(inplace=True)\n        )\n        (1): Sequential(\n          (0): MBConv(\n            (block): Sequential(\n              (0): Conv2dNormActivation(\n                (0): Conv2d(32, 32, kernel_size=(3, 3), stride=(1, 1), padding=(1, 1), groups=32, bias=False)\n                (1): BatchNorm2d(32, eps=1e-05, momentum=0.1, affine=True, track_running_stats=True)\n                (2): SiLU(inplace=True)\n              )\n              (1): SqueezeExcitation(\n                (avgpool): AdaptiveAvgPool2d(output_size=1)\n                (fc1): Conv2d(32, 8, kernel_size=(1, 1), stride=(1, 1))\n                (fc2): Conv2d(8, 32, kernel_size=(1, 1), stride=(1, 1))\n                (activation): SiLU(inplace=True)\n                (scale_activation): Sigmoid()\n              )\n              (2): Conv2dNormActivation(\n                (0): Conv2d(32, 16, kernel_size=(1, 1), stride=(1, 1), bias=False)\n                (1): BatchNorm2d(16, eps=1e-05, momentum=0.1, affine=True, track_running_stats=True)\n              )\n            )\n            (stochastic_depth): StochasticDepth(p=0.0, mode=row)\n          )\n        )\n        (2): Sequential(\n          (0): MBConv(\n            (block): Sequential(\n              (0): Conv2dNormActivation(\n                (0): Conv2d(16, 96, kernel_size=(1, 1), stride=(1, 1), bias=False)\n                (1): BatchNorm2d(96, eps=1e-05, momentum=0.1, affine=True, track_running_stats=True)\n                (2): SiLU(inplace=True)\n              )\n              (1): Conv2dNormActivation(\n                (0): Conv2d(96, 96, kernel_size=(3, 3), stride=(2, 2), padding=(1, 1), groups=96, bias=False)\n                (1): BatchNorm2d(96, eps=1e-05, momentum=0.1, affine=True, track_running_stats=True)\n                (2): SiLU(inplace=True)\n              )\n              (2): SqueezeExcitation(\n                (avgpool): AdaptiveAvgPool2d(output_size=1)\n                (fc1): Conv2d(96, 4, kernel_size=(1, 1), stride=(1, 1))\n                (fc2): Conv2d(4, 96, kernel_size=(1, 1), stride=(1, 1))\n                (activation): SiLU(inplace=True)\n                (scale_activation): Sigmoid()\n              )\n              (3): Conv2dNormActivation(\n                (0): Conv2d(96, 24, kernel_size=(1, 1), stride=(1, 1), bias=False)\n                (1): BatchNorm2d(24, eps=1e-05, momentum=0.1, affine=True, track_running_stats=True)\n              )\n            )\n            (stochastic_depth): StochasticDepth(p=0.0125, mode=row)\n          )\n          (1): MBConv(\n            (block): Sequential(\n              (0): Conv2dNormActivation(\n                (0): Conv2d(24, 144, kernel_size=(1, 1), stride=(1, 1), bias=False)\n                (1): BatchNorm2d(144, eps=1e-05, momentum=0.1, affine=True, track_running_stats=True)\n                (2): SiLU(inplace=True)\n              )\n              (1): Conv2dNormActivation(\n                (0): Conv2d(144, 144, kernel_size=(3, 3), stride=(1, 1), padding=(1, 1), groups=144, bias=False)\n                (1): BatchNorm2d(144, eps=1e-05, momentum=0.1, affine=True, track_running_stats=True)\n                (2): SiLU(inplace=True)\n              )\n              (2): SqueezeExcitation(\n                (avgpool): AdaptiveAvgPool2d(output_size=1)\n                (fc1): Conv2d(144, 6, kernel_size=(1, 1), stride=(1, 1))\n                (fc2): Conv2d(6, 144, kernel_size=(1, 1), stride=(1, 1))\n                (activation): SiLU(inplace=True)\n                (scale_activation): Sigmoid()\n              )\n              (3): Conv2dNormActivation(\n                (0): Conv2d(144, 24, kernel_size=(1, 1), stride=(1, 1), bias=False)\n                (1): BatchNorm2d(24, eps=1e-05, momentum=0.1, affine=True, track_running_stats=True)\n              )\n            )\n            (stochastic_depth): StochasticDepth(p=0.025, mode=row)\n          )\n        )\n        (3): Sequential(\n          (0): MBConv(\n            (block): Sequential(\n              (0): Conv2dNormActivation(\n                (0): Conv2d(24, 144, kernel_size=(1, 1), stride=(1, 1), bias=False)\n                (1): BatchNorm2d(144, eps=1e-05, momentum=0.1, affine=True, track_running_stats=True)\n                (2): SiLU(inplace=True)\n              )\n              (1): Conv2dNormActivation(\n                (0): Conv2d(144, 144, kernel_size=(5, 5), stride=(2, 2), padding=(2, 2), groups=144, bias=False)\n                (1): BatchNorm2d(144, eps=1e-05, momentum=0.1, affine=True, track_running_stats=True)\n                (2): SiLU(inplace=True)\n              )\n              (2): SqueezeExcitation(\n                (avgpool): AdaptiveAvgPool2d(output_size=1)\n                (fc1): Conv2d(144, 6, kernel_size=(1, 1), stride=(1, 1))\n                (fc2): Conv2d(6, 144, kernel_size=(1, 1), stride=(1, 1))\n                (activation): SiLU(inplace=True)\n                (scale_activation): Sigmoid()\n              )\n              (3): Conv2dNormActivation(\n                (0): Conv2d(144, 40, kernel_size=(1, 1), stride=(1, 1), bias=False)\n                (1): BatchNorm2d(40, eps=1e-05, momentum=0.1, affine=True, track_running_stats=True)\n              )\n            )\n            (stochastic_depth): StochasticDepth(p=0.037500000000000006, mode=row)\n          )\n          (1): MBConv(\n            (block): Sequential(\n              (0): Conv2dNormActivation(\n                (0): Conv2d(40, 240, kernel_size=(1, 1), stride=(1, 1), bias=False)\n                (1): BatchNorm2d(240, eps=1e-05, momentum=0.1, affine=True, track_running_stats=True)\n                (2): SiLU(inplace=True)\n              )\n              (1): Conv2dNormActivation(\n                (0): Conv2d(240, 240, kernel_size=(5, 5), stride=(1, 1), padding=(2, 2), groups=240, bias=False)\n                (1): BatchNorm2d(240, eps=1e-05, momentum=0.1, affine=True, track_running_stats=True)\n                (2): SiLU(inplace=True)\n              )\n              (2): SqueezeExcitation(\n                (avgpool): AdaptiveAvgPool2d(output_size=1)\n                (fc1): Conv2d(240, 10, kernel_size=(1, 1), stride=(1, 1))\n                (fc2): Conv2d(10, 240, kernel_size=(1, 1), stride=(1, 1))\n                (activation): SiLU(inplace=True)\n                (scale_activation): Sigmoid()\n              )\n              (3): Conv2dNormActivation(\n                (0): Conv2d(240, 40, kernel_size=(1, 1), stride=(1, 1), bias=False)\n                (1): BatchNorm2d(40, eps=1e-05, momentum=0.1, affine=True, track_running_stats=True)\n              )\n            )\n            (stochastic_depth): StochasticDepth(p=0.05, mode=row)\n          )\n        )\n        (4): Sequential(\n          (0): MBConv(\n            (block): Sequential(\n              (0): Conv2dNormActivation(\n                (0): Conv2d(40, 240, kernel_size=(1, 1), stride=(1, 1), bias=False)\n                (1): BatchNorm2d(240, eps=1e-05, momentum=0.1, affine=True, track_running_stats=True)\n                (2): SiLU(inplace=True)\n              )\n              (1): Conv2dNormActivation(\n                (0): Conv2d(240, 240, kernel_size=(3, 3), stride=(2, 2), padding=(1, 1), groups=240, bias=False)\n                (1): BatchNorm2d(240, eps=1e-05, momentum=0.1, affine=True, track_running_stats=True)\n                (2): SiLU(inplace=True)\n              )\n              (2): SqueezeExcitation(\n                (avgpool): AdaptiveAvgPool2d(output_size=1)\n                (fc1): Conv2d(240, 10, kernel_size=(1, 1), stride=(1, 1))\n                (fc2): Conv2d(10, 240, kernel_size=(1, 1), stride=(1, 1))\n                (activation): SiLU(inplace=True)\n                (scale_activation): Sigmoid()\n              )\n              (3): Conv2dNormActivation(\n                (0): Conv2d(240, 80, kernel_size=(1, 1), stride=(1, 1), bias=False)\n                (1): BatchNorm2d(80, eps=1e-05, momentum=0.1, affine=True, track_running_stats=True)\n              )\n            )\n            (stochastic_depth): StochasticDepth(p=0.0625, mode=row)\n          )\n          (1): MBConv(\n            (block): Sequential(\n              (0): Conv2dNormActivation(\n                (0): Conv2d(80, 480, kernel_size=(1, 1), stride=(1, 1), bias=False)\n                (1): BatchNorm2d(480, eps=1e-05, momentum=0.1, affine=True, track_running_stats=True)\n                (2): SiLU(inplace=True)\n              )\n              (1): Conv2dNormActivation(\n                (0): Conv2d(480, 480, kernel_size=(3, 3), stride=(1, 1), padding=(1, 1), groups=480, bias=False)\n                (1): BatchNorm2d(480, eps=1e-05, momentum=0.1, affine=True, track_running_stats=True)\n                (2): SiLU(inplace=True)\n              )\n              (2): SqueezeExcitation(\n                (avgpool): AdaptiveAvgPool2d(output_size=1)\n                (fc1): Conv2d(480, 20, kernel_size=(1, 1), stride=(1, 1))\n                (fc2): Conv2d(20, 480, kernel_size=(1, 1), stride=(1, 1))\n                (activation): SiLU(inplace=True)\n                (scale_activation): Sigmoid()\n              )\n              (3): Conv2dNormActivation(\n                (0): Conv2d(480, 80, kernel_size=(1, 1), stride=(1, 1), bias=False)\n                (1): BatchNorm2d(80, eps=1e-05, momentum=0.1, affine=True, track_running_stats=True)\n              )\n            )\n            (stochastic_depth): StochasticDepth(p=0.07500000000000001, mode=row)\n          )\n          (2): MBConv(\n            (block): Sequential(\n              (0): Conv2dNormActivation(\n                (0): Conv2d(80, 480, kernel_size=(1, 1), stride=(1, 1), bias=False)\n                (1): BatchNorm2d(480, eps=1e-05, momentum=0.1, affine=True, track_running_stats=True)\n                (2): SiLU(inplace=True)\n              )\n              (1): Conv2dNormActivation(\n                (0): Conv2d(480, 480, kernel_size=(3, 3), stride=(1, 1), padding=(1, 1), groups=480, bias=False)\n                (1): BatchNorm2d(480, eps=1e-05, momentum=0.1, affine=True, track_running_stats=True)\n                (2): SiLU(inplace=True)\n              )\n              (2): SqueezeExcitation(\n                (avgpool): AdaptiveAvgPool2d(output_size=1)\n                (fc1): Conv2d(480, 20, kernel_size=(1, 1), stride=(1, 1))\n                (fc2): Conv2d(20, 480, kernel_size=(1, 1), stride=(1, 1))\n                (activation): SiLU(inplace=True)\n                (scale_activation): Sigmoid()\n              )\n              (3): Conv2dNormActivation(\n                (0): Conv2d(480, 80, kernel_size=(1, 1), stride=(1, 1), bias=False)\n                (1): BatchNorm2d(80, eps=1e-05, momentum=0.1, affine=True, track_running_stats=True)\n              )\n            )\n            (stochastic_depth): StochasticDepth(p=0.08750000000000001, mode=row)\n          )\n        )\n        (5): Sequential(\n          (0): MBConv(\n            (block): Sequential(\n              (0): Conv2dNormActivation(\n                (0): Conv2d(80, 480, kernel_size=(1, 1), stride=(1, 1), bias=False)\n                (1): BatchNorm2d(480, eps=1e-05, momentum=0.1, affine=True, track_running_stats=True)\n                (2): SiLU(inplace=True)\n              )\n              (1): Conv2dNormActivation(\n                (0): Conv2d(480, 480, kernel_size=(5, 5), stride=(1, 1), padding=(2, 2), groups=480, bias=False)\n                (1): BatchNorm2d(480, eps=1e-05, momentum=0.1, affine=True, track_running_stats=True)\n                (2): SiLU(inplace=True)\n              )\n              (2): SqueezeExcitation(\n                (avgpool): AdaptiveAvgPool2d(output_size=1)\n                (fc1): Conv2d(480, 20, kernel_size=(1, 1), stride=(1, 1))\n                (fc2): Conv2d(20, 480, kernel_size=(1, 1), stride=(1, 1))\n                (activation): SiLU(inplace=True)\n                (scale_activation): Sigmoid()\n              )\n              (3): Conv2dNormActivation(\n                (0): Conv2d(480, 112, kernel_size=(1, 1), stride=(1, 1), bias=False)\n                (1): BatchNorm2d(112, eps=1e-05, momentum=0.1, affine=True, track_running_stats=True)\n              )\n            )\n            (stochastic_depth): StochasticDepth(p=0.1, mode=row)\n          )\n          (1): MBConv(\n            (block): Sequential(\n              (0): Conv2dNormActivation(\n                (0): Conv2d(112, 672, kernel_size=(1, 1), stride=(1, 1), bias=False)\n                (1): BatchNorm2d(672, eps=1e-05, momentum=0.1, affine=True, track_running_stats=True)\n                (2): SiLU(inplace=True)\n              )\n              (1): Conv2dNormActivation(\n                (0): Conv2d(672, 672, kernel_size=(5, 5), stride=(1, 1), padding=(2, 2), groups=672, bias=False)\n                (1): BatchNorm2d(672, eps=1e-05, momentum=0.1, affine=True, track_running_stats=True)\n                (2): SiLU(inplace=True)\n              )\n              (2): SqueezeExcitation(\n                (avgpool): AdaptiveAvgPool2d(output_size=1)\n                (fc1): Conv2d(672, 28, kernel_size=(1, 1), stride=(1, 1))\n                (fc2): Conv2d(28, 672, kernel_size=(1, 1), stride=(1, 1))\n                (activation): SiLU(inplace=True)\n                (scale_activation): Sigmoid()\n              )\n              (3): Conv2dNormActivation(\n                (0): Conv2d(672, 112, kernel_size=(1, 1), stride=(1, 1), bias=False)\n                (1): BatchNorm2d(112, eps=1e-05, momentum=0.1, affine=True, track_running_stats=True)\n              )\n            )\n            (stochastic_depth): StochasticDepth(p=0.1125, mode=row)\n          )\n          (2): MBConv(\n            (block): Sequential(\n              (0): Conv2dNormActivation(\n                (0): Conv2d(112, 672, kernel_size=(1, 1), stride=(1, 1), bias=False)\n                (1): BatchNorm2d(672, eps=1e-05, momentum=0.1, affine=True, track_running_stats=True)\n                (2): SiLU(inplace=True)\n              )\n              (1): Conv2dNormActivation(\n                (0): Conv2d(672, 672, kernel_size=(5, 5), stride=(1, 1), padding=(2, 2), groups=672, bias=False)\n                (1): BatchNorm2d(672, eps=1e-05, momentum=0.1, affine=True, track_running_stats=True)\n                (2): SiLU(inplace=True)\n              )\n              (2): SqueezeExcitation(\n                (avgpool): AdaptiveAvgPool2d(output_size=1)\n                (fc1): Conv2d(672, 28, kernel_size=(1, 1), stride=(1, 1))\n                (fc2): Conv2d(28, 672, kernel_size=(1, 1), stride=(1, 1))\n                (activation): SiLU(inplace=True)\n                (scale_activation): Sigmoid()\n              )\n              (3): Conv2dNormActivation(\n                (0): Conv2d(672, 112, kernel_size=(1, 1), stride=(1, 1), bias=False)\n                (1): BatchNorm2d(112, eps=1e-05, momentum=0.1, affine=True, track_running_stats=True)\n              )\n            )\n            (stochastic_depth): StochasticDepth(p=0.125, mode=row)\n          )\n        )\n        (6): Sequential(\n          (0): MBConv(\n            (block): Sequential(\n              (0): Conv2dNormActivation(\n                (0): Conv2d(112, 672, kernel_size=(1, 1), stride=(1, 1), bias=False)\n                (1): BatchNorm2d(672, eps=1e-05, momentum=0.1, affine=True, track_running_stats=True)\n                (2): SiLU(inplace=True)\n              )\n              (1): Conv2dNormActivation(\n                (0): Conv2d(672, 672, kernel_size=(5, 5), stride=(2, 2), padding=(2, 2), groups=672, bias=False)\n                (1): BatchNorm2d(672, eps=1e-05, momentum=0.1, affine=True, track_running_stats=True)\n                (2): SiLU(inplace=True)\n              )\n              (2): SqueezeExcitation(\n                (avgpool): AdaptiveAvgPool2d(output_size=1)\n                (fc1): Conv2d(672, 28, kernel_size=(1, 1), stride=(1, 1))\n                (fc2): Conv2d(28, 672, kernel_size=(1, 1), stride=(1, 1))\n                (activation): SiLU(inplace=True)\n                (scale_activation): Sigmoid()\n              )\n              (3): Conv2dNormActivation(\n                (0): Conv2d(672, 192, kernel_size=(1, 1), stride=(1, 1), bias=False)\n                (1): BatchNorm2d(192, eps=1e-05, momentum=0.1, affine=True, track_running_stats=True)\n              )\n            )\n            (stochastic_depth): StochasticDepth(p=0.1375, mode=row)\n          )\n          (1): MBConv(\n            (block): Sequential(\n              (0): Conv2dNormActivation(\n                (0): Conv2d(192, 1152, kernel_size=(1, 1), stride=(1, 1), bias=False)\n                (1): BatchNorm2d(1152, eps=1e-05, momentum=0.1, affine=True, track_running_stats=True)\n                (2): SiLU(inplace=True)\n              )\n              (1): Conv2dNormActivation(\n                (0): Conv2d(1152, 1152, kernel_size=(5, 5), stride=(1, 1), padding=(2, 2), groups=1152, bias=False)\n                (1): BatchNorm2d(1152, eps=1e-05, momentum=0.1, affine=True, track_running_stats=True)\n                (2): SiLU(inplace=True)\n              )\n              (2): SqueezeExcitation(\n                (avgpool): AdaptiveAvgPool2d(output_size=1)\n                (fc1): Conv2d(1152, 48, kernel_size=(1, 1), stride=(1, 1))\n                (fc2): Conv2d(48, 1152, kernel_size=(1, 1), stride=(1, 1))\n                (activation): SiLU(inplace=True)\n                (scale_activation): Sigmoid()\n              )\n              (3): Conv2dNormActivation(\n                (0): Conv2d(1152, 192, kernel_size=(1, 1), stride=(1, 1), bias=False)\n                (1): BatchNorm2d(192, eps=1e-05, momentum=0.1, affine=True, track_running_stats=True)\n              )\n            )\n            (stochastic_depth): StochasticDepth(p=0.15000000000000002, mode=row)\n          )\n          (2): MBConv(\n            (block): Sequential(\n              (0): Conv2dNormActivation(\n                (0): Conv2d(192, 1152, kernel_size=(1, 1), stride=(1, 1), bias=False)\n                (1): BatchNorm2d(1152, eps=1e-05, momentum=0.1, affine=True, track_running_stats=True)\n                (2): SiLU(inplace=True)\n              )\n              (1): Conv2dNormActivation(\n                (0): Conv2d(1152, 1152, kernel_size=(5, 5), stride=(1, 1), padding=(2, 2), groups=1152, bias=False)\n                (1): BatchNorm2d(1152, eps=1e-05, momentum=0.1, affine=True, track_running_stats=True)\n                (2): SiLU(inplace=True)\n              )\n              (2): SqueezeExcitation(\n                (avgpool): AdaptiveAvgPool2d(output_size=1)\n                (fc1): Conv2d(1152, 48, kernel_size=(1, 1), stride=(1, 1))\n                (fc2): Conv2d(48, 1152, kernel_size=(1, 1), stride=(1, 1))\n                (activation): SiLU(inplace=True)\n                (scale_activation): Sigmoid()\n              )\n              (3): Conv2dNormActivation(\n                (0): Conv2d(1152, 192, kernel_size=(1, 1), stride=(1, 1), bias=False)\n                (1): BatchNorm2d(192, eps=1e-05, momentum=0.1, affine=True, track_running_stats=True)\n              )\n            )\n            (stochastic_depth): StochasticDepth(p=0.1625, mode=row)\n          )\n          (3): MBConv(\n            (block): Sequential(\n              (0): Conv2dNormActivation(\n                (0): Conv2d(192, 1152, kernel_size=(1, 1), stride=(1, 1), bias=False)\n                (1): BatchNorm2d(1152, eps=1e-05, momentum=0.1, affine=True, track_running_stats=True)\n                (2): SiLU(inplace=True)\n              )\n              (1): Conv2dNormActivation(\n                (0): Conv2d(1152, 1152, kernel_size=(5, 5), stride=(1, 1), padding=(2, 2), groups=1152, bias=False)\n                (1): BatchNorm2d(1152, eps=1e-05, momentum=0.1, affine=True, track_running_stats=True)\n                (2): SiLU(inplace=True)\n              )\n              (2): SqueezeExcitation(\n                (avgpool): AdaptiveAvgPool2d(output_size=1)\n                (fc1): Conv2d(1152, 48, kernel_size=(1, 1), stride=(1, 1))\n                (fc2): Conv2d(48, 1152, kernel_size=(1, 1), stride=(1, 1))\n                (activation): SiLU(inplace=True)\n                (scale_activation): Sigmoid()\n              )\n              (3): Conv2dNormActivation(\n                (0): Conv2d(1152, 192, kernel_size=(1, 1), stride=(1, 1), bias=False)\n                (1): BatchNorm2d(192, eps=1e-05, momentum=0.1, affine=True, track_running_stats=True)\n              )\n            )\n            (stochastic_depth): StochasticDepth(p=0.17500000000000002, mode=row)\n          )\n        )\n        (7): Sequential(\n          (0): MBConv(\n            (block): Sequential(\n              (0): Conv2dNormActivation(\n                (0): Conv2d(192, 1152, kernel_size=(1, 1), stride=(1, 1), bias=False)\n                (1): BatchNorm2d(1152, eps=1e-05, momentum=0.1, affine=True, track_running_stats=True)\n                (2): SiLU(inplace=True)\n              )\n              (1): Conv2dNormActivation(\n                (0): Conv2d(1152, 1152, kernel_size=(3, 3), stride=(1, 1), padding=(1, 1), groups=1152, bias=False)\n                (1): BatchNorm2d(1152, eps=1e-05, momentum=0.1, affine=True, track_running_stats=True)\n                (2): SiLU(inplace=True)\n              )\n              (2): SqueezeExcitation(\n                (avgpool): AdaptiveAvgPool2d(output_size=1)\n                (fc1): Conv2d(1152, 48, kernel_size=(1, 1), stride=(1, 1))\n                (fc2): Conv2d(48, 1152, kernel_size=(1, 1), stride=(1, 1))\n                (activation): SiLU(inplace=True)\n                (scale_activation): Sigmoid()\n              )\n              (3): Conv2dNormActivation(\n                (0): Conv2d(1152, 320, kernel_size=(1, 1), stride=(1, 1), bias=False)\n                (1): BatchNorm2d(320, eps=1e-05, momentum=0.1, affine=True, track_running_stats=True)\n              )\n            )\n            (stochastic_depth): StochasticDepth(p=0.1875, mode=row)\n          )\n        )\n        (8): Conv2dNormActivation(\n          (0): Conv2d(320, 1280, kernel_size=(1, 1), stride=(1, 1), bias=False)\n          (1): BatchNorm2d(1280, eps=1e-05, momentum=0.1, affine=True, track_running_stats=True)\n          (2): SiLU(inplace=True)\n        )\n      )\n      (1): AdaptiveAvgPool2d(output_size=1)\n    )\n    (border_attention): Sequential(\n      (0): Conv2d(1280, 1, kernel_size=(1, 1), stride=(1, 1))\n      (1): Sigmoid()\n    )\n    (pallu_attention): Sequential(\n      (0): Conv2d(1280, 1, kernel_size=(1, 1), stride=(1, 1))\n      (1): Sigmoid()\n    )\n    (body_attention): Sequential(\n      (0): Conv2d(1280, 1, kernel_size=(1, 1), stride=(1, 1))\n      (1): Sigmoid()\n    )\n    (post_attention): Sequential(\n      (0): AdaptiveAvgPool2d(output_size=1)\n      (1): Flatten(start_dim=1, end_dim=-1)\n      (2): Linear(in_features=1280, out_features=256, bias=True)\n      (3): ReLU()\n      (4): Dropout(p=0.3, inplace=False)\n    )\n  )\n  (saree_fusion): Sequential(\n    (0): Linear(in_features=1024, out_features=256, bias=True)\n    (1): ReLU()\n    (2): Dropout(p=0.1, inplace=False)\n  )\n  (attribute_predictors): ModuleDict(\n    (Kurtis_color): Sequential(\n      (0): Linear(in_features=768, out_features=256, bias=True)\n      (1): ReLU()\n      (2): Dropout(p=0.1, inplace=False)\n      (3): Linear(in_features=256, out_features=13, bias=True)\n    )\n    (Kurtis_fit_shape): Sequential(\n      (0): Linear(in_features=768, out_features=256, bias=True)\n      (1): ReLU()\n      (2): Dropout(p=0.1, inplace=False)\n      (3): Linear(in_features=256, out_features=2, bias=True)\n    )\n    (Kurtis_length): Sequential(\n      (0): Linear(in_features=768, out_features=256, bias=True)\n      (1): ReLU()\n      (2): Dropout(p=0.1, inplace=False)\n      (3): Linear(in_features=256, out_features=2, bias=True)\n    )\n    (Kurtis_occasion): Sequential(\n      (0): Linear(in_features=768, out_features=256, bias=True)\n      (1): ReLU()\n      (2): Dropout(p=0.1, inplace=False)\n      (3): Linear(in_features=256, out_features=2, bias=True)\n    )\n    (Kurtis_ornamentation): Sequential(\n      (0): Linear(in_features=768, out_features=256, bias=True)\n      (1): ReLU()\n      (2): Dropout(p=0.1, inplace=False)\n      (3): Linear(in_features=256, out_features=2, bias=True)\n    )\n    (Kurtis_pattern): Sequential(\n      (0): Linear(in_features=768, out_features=256, bias=True)\n      (1): ReLU()\n      (2): Dropout(p=0.1, inplace=False)\n      (3): Linear(in_features=256, out_features=2, bias=True)\n    )\n    (Kurtis_print_or_pattern_type): Sequential(\n      (0): Linear(in_features=768, out_features=256, bias=True)\n      (1): ReLU()\n      (2): Dropout(p=0.1, inplace=False)\n      (3): Linear(in_features=256, out_features=2, bias=True)\n    )\n    (Kurtis_sleeve_length): Sequential(\n      (0): Linear(in_features=768, out_features=256, bias=True)\n      (1): ReLU()\n      (2): Dropout(p=0.1, inplace=False)\n      (3): Linear(in_features=256, out_features=3, bias=True)\n    )\n    (Kurtis_sleeve_styling): Sequential(\n      (0): Linear(in_features=768, out_features=256, bias=True)\n      (1): ReLU()\n      (2): Dropout(p=0.1, inplace=False)\n      (3): Linear(in_features=256, out_features=2, bias=True)\n    )\n    (Men Tshirts_color): Sequential(\n      (0): Linear(in_features=768, out_features=256, bias=True)\n      (1): ReLU()\n      (2): Dropout(p=0.1, inplace=False)\n      (3): Linear(in_features=256, out_features=4, bias=True)\n    )\n    (Men Tshirts_neck): Sequential(\n      (0): Linear(in_features=768, out_features=256, bias=True)\n      (1): ReLU()\n      (2): Dropout(p=0.1, inplace=False)\n      (3): Linear(in_features=256, out_features=2, bias=True)\n    )\n    (Men Tshirts_pattern): Sequential(\n      (0): Linear(in_features=768, out_features=256, bias=True)\n      (1): ReLU()\n      (2): Dropout(p=0.1, inplace=False)\n      (3): Linear(in_features=256, out_features=2, bias=True)\n    )\n    (Men Tshirts_print_or_pattern_type): Sequential(\n      (0): Linear(in_features=768, out_features=256, bias=True)\n      (1): ReLU()\n      (2): Dropout(p=0.1, inplace=False)\n      (3): Linear(in_features=256, out_features=3, bias=True)\n    )\n    (Men Tshirts_sleeve_length): Sequential(\n      (0): Linear(in_features=768, out_features=256, bias=True)\n      (1): ReLU()\n      (2): Dropout(p=0.1, inplace=False)\n      (3): Linear(in_features=256, out_features=2, bias=True)\n    )\n    (Sarees_blouse_pattern): Sequential(\n      (0): Linear(in_features=256, out_features=256, bias=True)\n      (1): ReLU()\n      (2): Dropout(p=0.1, inplace=False)\n      (3): Linear(in_features=256, out_features=4, bias=True)\n    )\n    (Sarees_border): Sequential(\n      (0): Linear(in_features=256, out_features=256, bias=True)\n      (1): ReLU()\n      (2): Dropout(p=0.1, inplace=False)\n      (3): Linear(in_features=256, out_features=6, bias=True)\n    )\n    (Sarees_border_width): Sequential(\n      (0): Linear(in_features=256, out_features=256, bias=True)\n      (1): ReLU()\n      (2): Dropout(p=0.1, inplace=False)\n      (3): Linear(in_features=256, out_features=3, bias=True)\n    )\n    (Sarees_color): Sequential(\n      (0): Linear(in_features=256, out_features=256, bias=True)\n      (1): ReLU()\n      (2): Dropout(p=0.1, inplace=False)\n      (3): Linear(in_features=256, out_features=8, bias=True)\n    )\n    (Sarees_occasion): Sequential(\n      (0): Linear(in_features=256, out_features=256, bias=True)\n      (1): ReLU()\n      (2): Dropout(p=0.1, inplace=False)\n      (3): Linear(in_features=256, out_features=4, bias=True)\n    )\n    (Sarees_ornamentation): Sequential(\n      (0): Linear(in_features=256, out_features=256, bias=True)\n      (1): ReLU()\n      (2): Dropout(p=0.1, inplace=False)\n      (3): Linear(in_features=256, out_features=3, bias=True)\n    )\n    (Sarees_pallu_details): Sequential(\n      (0): Linear(in_features=256, out_features=256, bias=True)\n      (1): ReLU()\n      (2): Dropout(p=0.1, inplace=False)\n      (3): Linear(in_features=256, out_features=4, bias=True)\n    )\n    (Sarees_pattern): Sequential(\n      (0): Linear(in_features=256, out_features=256, bias=True)\n      (1): ReLU()\n      (2): Dropout(p=0.1, inplace=False)\n      (3): Linear(in_features=256, out_features=5, bias=True)\n    )\n    (Sarees_print_or_pattern_type): Sequential(\n      (0): Linear(in_features=256, out_features=256, bias=True)\n      (1): ReLU()\n      (2): Dropout(p=0.1, inplace=False)\n      (3): Linear(in_features=256, out_features=9, bias=True)\n    )\n    (Sarees_transparency): Sequential(\n      (0): Linear(in_features=256, out_features=256, bias=True)\n      (1): ReLU()\n      (2): Dropout(p=0.1, inplace=False)\n      (3): Linear(in_features=256, out_features=2, bias=True)\n    )\n    (Women Tops & Tunics_color): Sequential(\n      (0): Linear(in_features=768, out_features=256, bias=True)\n      (1): ReLU()\n      (2): Dropout(p=0.1, inplace=False)\n      (3): Linear(in_features=256, out_features=12, bias=True)\n    )\n    (Women Tops & Tunics_fit_shape): Sequential(\n      (0): Linear(in_features=768, out_features=256, bias=True)\n      (1): ReLU()\n      (2): Dropout(p=0.1, inplace=False)\n      (3): Linear(in_features=256, out_features=4, bias=True)\n    )\n    (Women Tops & Tunics_length): Sequential(\n      (0): Linear(in_features=768, out_features=256, bias=True)\n      (1): ReLU()\n      (2): Dropout(p=0.1, inplace=False)\n      (3): Linear(in_features=256, out_features=2, bias=True)\n    )\n    (Women Tops & Tunics_neck_collar): Sequential(\n      (0): Linear(in_features=768, out_features=256, bias=True)\n      (1): ReLU()\n      (2): Dropout(p=0.1, inplace=False)\n      (3): Linear(in_features=256, out_features=7, bias=True)\n    )\n    (Women Tops & Tunics_occasion): Sequential(\n      (0): Linear(in_features=768, out_features=256, bias=True)\n      (1): ReLU()\n      (2): Dropout(p=0.1, inplace=False)\n      (3): Linear(in_features=256, out_features=2, bias=True)\n    )\n    (Women Tops & Tunics_pattern): Sequential(\n      (0): Linear(in_features=768, out_features=256, bias=True)\n      (1): ReLU()\n      (2): Dropout(p=0.1, inplace=False)\n      (3): Linear(in_features=256, out_features=3, bias=True)\n    )\n    (Women Tops & Tunics_print_or_pattern_type): Sequential(\n      (0): Linear(in_features=768, out_features=256, bias=True)\n      (1): ReLU()\n      (2): Dropout(p=0.1, inplace=False)\n      (3): Linear(in_features=256, out_features=6, bias=True)\n    )\n    (Women Tops & Tunics_sleeve_length): Sequential(\n      (0): Linear(in_features=768, out_features=256, bias=True)\n      (1): ReLU()\n      (2): Dropout(p=0.1, inplace=False)\n      (3): Linear(in_features=256, out_features=4, bias=True)\n    )\n    (Women Tops & Tunics_sleeve_styling): Sequential(\n      (0): Linear(in_features=768, out_features=256, bias=True)\n      (1): ReLU()\n      (2): Dropout(p=0.1, inplace=False)\n      (3): Linear(in_features=256, out_features=4, bias=True)\n    )\n    (Women Tops & Tunics_surface_styling): Sequential(\n      (0): Linear(in_features=768, out_features=256, bias=True)\n      (1): ReLU()\n      (2): Dropout(p=0.1, inplace=False)\n      (3): Linear(in_features=256, out_features=6, bias=True)\n    )\n    (Women Tshirts_color): Sequential(\n      (0): Linear(in_features=768, out_features=256, bias=True)\n      (1): ReLU()\n      (2): Dropout(p=0.1, inplace=False)\n      (3): Linear(in_features=256, out_features=7, bias=True)\n    )\n    (Women Tshirts_fit_shape): Sequential(\n      (0): Linear(in_features=768, out_features=256, bias=True)\n      (1): ReLU()\n      (2): Dropout(p=0.1, inplace=False)\n      (3): Linear(in_features=256, out_features=3, bias=True)\n    )\n    (Women Tshirts_length): Sequential(\n      (0): Linear(in_features=768, out_features=256, bias=True)\n      (1): ReLU()\n      (2): Dropout(p=0.1, inplace=False)\n      (3): Linear(in_features=256, out_features=3, bias=True)\n    )\n    (Women Tshirts_pattern): Sequential(\n      (0): Linear(in_features=768, out_features=256, bias=True)\n      (1): ReLU()\n      (2): Dropout(p=0.1, inplace=False)\n      (3): Linear(in_features=256, out_features=3, bias=True)\n    )\n    (Women Tshirts_print_or_pattern_type): Sequential(\n      (0): Linear(in_features=768, out_features=256, bias=True)\n      (1): ReLU()\n      (2): Dropout(p=0.1, inplace=False)\n      (3): Linear(in_features=256, out_features=6, bias=True)\n    )\n    (Women Tshirts_sleeve_length): Sequential(\n      (0): Linear(in_features=768, out_features=256, bias=True)\n      (1): ReLU()\n      (2): Dropout(p=0.1, inplace=False)\n      (3): Linear(in_features=256, out_features=3, bias=True)\n    )\n    (Women Tshirts_sleeve_styling): Sequential(\n      (0): Linear(in_features=768, out_features=256, bias=True)\n      (1): ReLU()\n      (2): Dropout(p=0.1, inplace=False)\n      (3): Linear(in_features=256, out_features=2, bias=True)\n    )\n    (Women Tshirts_surface_styling): Sequential(\n      (0): Linear(in_features=768, out_features=256, bias=True)\n      (1): ReLU()\n      (2): Dropout(p=0.1, inplace=False)\n      (3): Linear(in_features=256, out_features=2, bias=True)\n    )\n  )\n)"
}
2024-10-29 01:00:30,484 | INFO | CLIP model loaded successfully
2024-10-29 01:00:30,494 | INFO | Starting epoch 1/40
2024-10-29 01:00:39,321 | INFO | Epoch 1, Batch 0: Loss = 1.3393, Accuracy = 29.2553%
2024-10-29 01:01:50,232 | INFO | Epoch 1, Batch 100: Loss = 0.8585, Accuracy = 67.1296%
2024-10-29 01:03:03,434 | INFO | Epoch 1, Batch 200: Loss = 0.8997, Accuracy = 66.6667%
…
